Lumi/data.pth (torch, 27543 bytes, 6 tensors)

l1.weight f4 [8, 396]
00000000: 327e 48be b193 c2be 2281 e4be cd75 c6be
00000010: e39d 72be 86bd 2ebe 137b 8abe 4f61 4a3f
00000020: 1e64 713d af53 883e e4e2 323f bbbd 00bf
00000030: b7a0 a23e e2d1 863e 6124 05bf bf2e bd3e
00000040: d5bc a33d 1a4c 96bc 2d18 ad3f ff32 343f
00000050: 9184 02bf c13b c23d 88b9 ae3e e2a7 15bd
00000060: 4184 f13e 2ca2 7c3f 2c1e 5c3e 7f35 13bf
00000070: 4c8f a1bd c4a2 c7ba f326 8e3e e9c6 67be
00000080: adb9 aabe 8d23 a73e 584c 27be 52a6 2f3d
00000090: 07ae 6e3c f948 853e 496e 093f 4c27 e9bd
000000a0: c654 e3be 4eff 3ebd a28e 453f 4234 113f
000000b0: 1ce6 92be eb29 513f b13a 473f afa6 2ebf
000000c0: ee93 393d 998f 45be e64f 7e3e 99ab 263d
000000d0: b09f f23e cfbb 5bbf 9ae2 d83e bd54 663f
000000e0: aa66 3b3e aa87 083f 1c39 a43f e3c2 88be
000000f0: 708b 91be 0139 583d 503a 413e 98bb 5bbf
00000100: 9191 28bf 31c5 14bf b8ea 92be 4e7a 27bf
00000110: 4fd9 153e 52c3 5bbf ff35 fb3e 7819 4e3d
00000120: dc54 1c3f 7b3b 363f 0cd4 7abe 80ac 7cbe
00000130: 0564 a7be a960 9dbe 4dfc 14bf 69e7 7f3d
00000140: a9d0 33bf 1b2c 1dbf 52f5 1f3c a50e a0be
00000150: d9bd 0cbe 06ca 06be df3e 8c3f 11e2 703f
00000160: 6cf6 6b3f 9315 1a3f b08f a2be 6343 39bd
00000170: 75f3 3e3e f1e3 4b3e 2ccc c13e fcdc 0c3f
00000180: a9a0 d43e ad69 0cbf 37ee ee3e e0c2 b9be
00000190: f708 6f3d 109d 0d3e 1dda 87be bca6 9c3f
000001a0: f0a1 1abe 59f4 eb3e 5a77 0c3d fdf5 573f
000001b0: a455 0c3f df35 9abe 078c 3f3f 2208 a43f
000001c0: c775 50bf 15e7 06be 4536 a4bc 9b30 38be
000001d0: e07d a2be 0c72 483e 5a67 9d3e a0b9 08bf
000001e0: 3259 263f 62f2 9c3e 139d 8e3e e811 0bbf
000001f0: 8b70 46bc 58fc adbe 41b8 99be 512e f03e
00000200: 0781 6f3f b96d 98be 79b3 ce3e d7e0 93bd
00000210: d1e1 3d3f 56f7 883e 2f5b 363e 7494 023d
00000220: 1c9f b43e a87b f0bd 9398 093f 4686 97bd
00000230: 6dd4 cd3e 6401 223f f707 563f ba01 c23e
00000240: 180a 7f3d 60c9 513e b354 ccbb 67e4 64bb
00000250: 4e5e c43f fdc3 96bc 7bbf 22bf ef72 ffba
00000260: 5f54 163f f86c 4b3e ccdc 093f b671 513f
00000270: ccce f53d a6d2 713f 23c1 bc3f b6d0 5ebd
00000280: 3b81 723d 5246 c6be bdc2 133f 6609 2dbf
00000290: b3d3 763e d2f8 113e f2ab 813e c700 563e
000002a0: 49e2 2c3e 45fa 633f 1dd4 1f3f 1070 673f
000002b0: 6291 703f c048 c23e 527b 0f3f 3978 4a3f
000002c0: e9ad 2c3e b551 02bf f5a9 1a3f 3d0c 433f
000002d0: 1cba e5bd 554f edbe 44b3 13be 159c e2be
000002e0: cb4a 373f e5cb 4f3f fccf b13d 9917 aa3f
000002f0: 97dc e9bd 3ab7 e53d cf70 9bbe 9624 093f
00000300: e9a2 23be 9f8f abbe c3c5 9b3e 896f 963c
00000310: 6ccb 1a3f 7c74 81be 8a63 433e 83e1 43be
00000320: 5371 2e3f b9c9 debe 01fa 173f 6998 433f
00000330: 5a58 853f ae83 fcbe d9ea 3ebf 0014 d1be
00000340: de89 043f 368e 923e e8b9 09bf 1f52 20bf
00000350: 8e28 21bc 4814 3a3d 2bad 0abe 9148 a6be
00000360: 8480 943e fc06 90bd 49fb a63e 1566 0e3c
00000370: 2813 a63e a90c 8c3e c853 383e 550b c3bd
00000380: dcb9 93be 5aef 003f 87db 43bf 816a e13e
00000390: dfe5 703f e94b 183e cc32 463e e446 15bf
000003a0: cccd 12bf 8807 803e 8681 3e3f 2a41 a1be
000003b0: 9deb a2be fa60 1c3f c3a1 1abe 1287 e53d
000003c0: f0d8 ce3d 8fc1 4fbf a23b c13e 5b81 1d3f
000003d0: 7954 ad3e eba6 41be db0f 5dbf 351e 423f
000003e0: 326b a23f fa5b 813f 5214 323d b0c4 e4be
000003f0: af45 473f d0eb 30be 2b84 fbbc 4c62 8f3f
-0.1957939 -0.38003305 -0.4462977 -0.3876175 -0.23693042 -0.17064485 -0.27047023 0.7905473
0.05893337 0.26626346 0.6987746 -0.50289506 0.3176324 0.26332003 -0.52008635 0.36949727
0.07995001 -0.018346835 1.3523003 0.70390314 -0.5098353 0.094840534 0.34125924 -0.03653706
0.47171214 0.98684955 0.21495885 -0.57503504 -0.0788866 -0.0015231003 0.2776409 -0.22634472
-0.33344784 0.3264431 -0.16337717 0.042883225 0.014567859 0.26032236 0.53683907 -0.113844484
-0.44400615 -0.046630196 0.77170765 0.56720364 -0.28691185 0.81704587 0.7782393 -0.6822309
0.045307092 -0.1929306 0.24835166 0.040690992 0.47387457 -0.8583345 0.42360383 0.8997305
0.18300882 0.53332007 1.2829928 -0.26711187 -0.28426695 0.05278874 0.188699 -0.8583312
-0.65847117 -0.5811339 -0.286947 -0.65421 0.14633678 -0.8584491 0.49064633 0.050317258
0.61066985 0.7118451 -0.24494952 -0.24675179 -0.32693496 -0.30737808 -0.5819748 0.06247655
-0.70240265 -0.61395425 0.009763079 -0.31261173 -0.13744296 -0.13163003 1.0956687 0.9409495
0.92172885 0.6018917 -0.3175025 -0.04523028 0.18647559 0.19911171 0.37851083 0.55024695
0.41528824 -0.5484875 0.46666119 -0.3628149 0.05835816 0.13829446 -0.26533595 1.2238383
-0.15100837 0.4608486 0.03429351 0.84359723 0.5481818 -0.30119225 0.7482304 1.2814982
-0.81429714 -0.13174088 -0.020045409 -0.17987292 -0.3173666 0.19574755 0.30742913 -0.5340824
0.6497985 0.30653673 0.27854213 -0.543242 -0.012111793 -0.33981586 -0.30023387 0.46910337
0.93556255 -0.29771212 0.40371302 -0.07220619 0.74172693 0.26751202 0.17808221 0.031879857
0.3527764 -0.117423356 0.53748435 -0.073986575 0.4020113 0.6328337 0.83605903 0.37891942
0.062265486 0.20486975 -0.006235683 -0.0034926177 1.534128 -0.018404001 -0.63573426 -0.0019489209
0.5872249 0.19865787 0.53852534 0.81814134 0.12002334 0.9446205 1.4746441 -0.05439826
0.059205275 -0.38725525 0.5771902 -0.67592466 0.24104194 0.14255074 0.25326496 0.20898734
0.16883196 0.89053756 0.62433034 0.9040537 0.93971837 0.3794613 0.56047547 0.79089695
0.16863216 -0.50905925 0.60415584 0.7619055 -0.11217138 -0.46349588 -0.14423853 -0.44259706
0.715985 0.81170493 0.08682248 1.3288451 -0.11419027 0.11216588 -0.30359504 0.5357145
-0.15980114 -0.33508012 0.30424318 0.018363731 0.6046665 -0.25284183 0.1908094 -0.19128995
0.6814167 -0.43513277 0.5936585 0.76404434 1.0417588 -0.49319214 -0.745771 -0.4083557
0.5177287 0.28624123 -0.53799295 -0.62625307 -0.009836329 0.045429498 -0.13542621 -0.3247724
0.290043 -0.07032582 0.3261359 0.00869133 0.3243649 0.2735341 0.1800071 -0.09523646
-0.28852737 0.5036522 -0.7650685 0.4402657 0.94100755 0.14872707 0.19355315 -0.58311296
-0.5734527 0.25005746 0.7441639 -0.3149503 -0.31820384 0.61085474 -0.1510077 0.11207403
0.10099971 -0.8115472 0.3774081 0.61525506 0.3385351 -0.1891133 -0.8635232 0.7582734
1.2688963 1.0106194 0.04347641 -0.4468131 0.77840704 -0.17277455 -0.030702671 1.1201873

l1.bias f4 [8]
00000000: a8b6 b33f 7169 f93f e08e c33f cf13 5e3f
00000010: abb2 2e3f 72bd d23f 0b86 943f d24f 763f
1.4040117 1.9485303 1.5277977 0.86748976 0.68241376 1.6464064 1.1603407 0.96215546

l2.weight f4 [8, 8]
00000000: 4cf6 403f 4451 84bf 5010 eeb9 3bdc 6e3f
00000010: d56c 1d40 b819 8f3f 7726 6bbf 8ec1 fb3f
00000020: 4db0 983f 4106 633f f077 82bf cf38 73bf
00000030: 2636 c9bf 6c3d b43f 6a15 7840 a7d7 3540
00000040: a34d 2840 dd87 3a40 2bc7 b9bf 46fc 86bf
00000050: 2c86 1740 56a5 2a3f da14 69bf 516b b33d
00000060: 7410 0cbf c3ab e33f e474 8c3f f374 0740
00000070: 59e5 02c0 8c30 a53f 8795 85bf 7703 3140
00000080: eaa8 d73f 0a51 3c3e 1eec 33bf 4c0e 5140
00000090: 218d babd a8c2 ff3e c308 0b40 49ea c4bf
000000a0: eb94 833f d3dd 1140 97cb 1b40 2b2a 15bc
000000b0: dd19 7c3f 8dbf 04c0 2c76 19be fdf8 93bd
000000c0: 9f0b cb3f 8857 4cbf 8b2f 8f3f 7239 cb3f
000000d0: cb2c bc3f 226a 15c0 d515 cf3f f548 a63f
000000e0: f6be 0e40 2edc d3be 1e01 4f40 7ad3 19bf
000000f0: 17ac 183f 3c04 5840 96e1 083f afd1 cdbf
0.7537582 -1.03373 -0.0004540705 0.93304795 2.4597676 1.1179724 -0.9185557 1.9668443
1.1928803 0.8868142 -1.0192852 -0.9500856 -1.571965 1.4081244 3.876307 2.8412874
2.6297386 2.9145424 -1.4513906 -1.0545738 2.3675642 0.6665853 -0.9104744 0.08760703
-0.54712605 1.7786793 1.0973172 2.116513 -2.0452483 1.290544 -1.0436257 2.7658365
1.6848423 0.18390289 -0.7028216 3.2664976 -0.091089495 0.49953198 2.1724098 -1.5383998
1.0279821 2.279164 2.4343011 -0.009104292 0.98476964 -2.0741913 -0.14986485 -0.07225225
1.5862921 -0.7982106 1.1186384 1.5876906 1.470117 -2.3346028 1.6178538 1.2991015
2.2304053 -0.4137892 3.2344432 -0.6008831 0.5963759 3.3752584 0.53469217 -1.6079615

l2.bias f4 [8]
00000000: 5618 003e 5cf5 2d3f c22d 433f 7903 693f
00000010: 0885 dabb 685a 343f 9676 b6be 0fd5 8d3f
0.12509283 0.67952514 0.76241696 0.91020924 -0.0066686906 0.7045045 -0.3563735 1.1080645

l3.weight f4 [105, 8]
00000000: 0a05 7fbd 096f 04c0 7f99 403f 8f0b b5bf
00000010: 5453 21bf 380d c13e ca6d 2ac0 6387 f33e
00000020: 396d 85bd 55e5 00c0 4418 d93e 79f5 58c0
00000030: 51c4 adbe 3057 013f 4371 173e 2acf 853d
00000040: 29ee 98bd 3ab4 4e3e 372d b83e c38c 52c0
00000050: 7b68 38bd 8e76 2dbe 842b 9bbe 0992 a8be
00000060: 133f 8bbf fdc9 3dbf 5772 a0be fd02 9fbf
00000070: c16f f33b 6583 0e3f df5a c83d 38f8 1e3e
00000080: 5d50 73bf 5705 4bbf 36ec bfbc cc80 ad3d
00000090: 245c 943e 9875 4f39 ae20 51bf 0f4a 12be
000000a0: 7a25 efbe bf70 8abf da37 523e c187 923e
000000b0: c838 80bf 250e a63e eb2a 47be 190d 15bf
000000c0: 76d4 86be d777 573e 92bd 43c0 fe63 123f
000000d0: 8e44 703e a53f 12bf d25d eabe c2ec 3ebf
000000e0: 4b2c 0fbf c85d 033e a935 a33e 491e 40be
000000f0: bf9d 2a3e d80b 21c0 1dca 45c0 3240 773e
00000100: a596 78bc c295 a23e 716d 103e 2909 25c0
00000110: d037 1fbe 8cfa c4bf fe4d 4cc0 4b3e 343f
00000120: 4ac1 883e 5eae 2b3f a53c 20be 9513 b4bf
00000130: 7cae 81be e59d 22c0 2159 a1bf b739 d8bc
00000140: dbee 1d3f 46f2 b2bf af6d 303f 1270 00c0
00000150: 7df1 6d3e 8158 99bf 064c 46c0 0133 a53e
00000160: 5b9f 19bd db1e d8bf 03e7 d6be cf07 98be
00000170: 6cb5 0f3f 0ea0 87bf 6ff5 57be cbe5 303c
00000180: 35e6 2fc0 6ebd fcbf bf6c 6cbf 516f f23e
00000190: c475 f83e ad8e 0a3f 8270 b3be 321e 263d
000001a0: 8852 fdbe e117 6c3d da3d 21bf 2f9d 6b3e
000001b0: d709 d2bf eeff 85bc cdd8 7dc0 62cb 0b3f
000001c0: f17a 2abe 42f5 e4bd 6fc8 d4bf 29eb ee3e
000001d0: 4f60 8bbf dfc7 edbf 9bef 25c0 df01 293f
000001e0: 957f 193e 7f94 afbe d2cb adbd 4e43 8dbe
000001f0: f6c9 40bf d440 f6bf 01da d6bf 2f24 033f
00000200: 8368 34bf 7402 bc3e 37a9 aebf 15e4 06bf
00000210: bb16 24bc ac05 97bf ece6 22c0 82db 403f
00000220: beea 4abf 38c7 24bf 6fa7 64c0 630e 943e
00000230: a47a 023f 4faf fdbc c9a5 0bbf 6745 073e
00000240: 06d2 c4bf 868b 69be 8a76 29bf bbdb 25c0
00000250: 4395 aa3e 359f fa3d 6109 adbc 90a8 253f
00000260: a4b2 d7bf 4266 123f 5610 273e d734 5fc0
00000270: 4f19 753e 5adf 74bf 45a1 42bf 3414 003f
00000280: 07d2 703e 8764 abbe f007 1c3f c064 663e
00000290: b99a c8bf 72ab b33e 508c 29bf 8c60 1fc0
000002a0: 6eac 55be b88e 013d d557 02bd 105a 353f
000002b0: 5c77 783e 69fe 48be ec53 97bf 34e1 42c0
000002c0: 5031 4fbf a9e7 88be a0bd 373e cd0b ddbd
000002d0: 3508 ca3e 812b c63e 355a d2bc 320a 43c0
000002e0: 3bb8 41c0 d83f 203f a282 a43e 4558 113f
000002f0: 9121 aa3e 6fdd c5bf 6d23 77c0 1590 3fbf
00000300: 6369 dfbe 49f0 053f 690e f2bf c63f 193f
00000310: 4574 1c3f cf8b d2bf ee13 1dbf 85c7 0fc0
00000320: ea6f 08c0 3559 bb3e ea8a 29c0 e2b1 33be
00000330: 6613 403e 2b61 e8be 87b5 25bf c413 1c3f
00000340: 79a1 41bf d416 07bf e381 9dbf 7ec0 433f
00000350: 31b4 6ebd ff54 0e3f 2074 0dbe ef3e e0bf
00000360: ec9b 143f 6463 b6bf faa2 e1bf c905 013d
00000370: 5d71 6abf d79c 92be 23ac e9bf ae26 3e3f
00000380: cc6a 2f3e 969c b93e 6ccf 133e ea4f 143c
00000390: 95df 0cc0 e83f e1bf 1b88 09c0 ea0a c23d
000003a0: 6953 aabe e469 e9bd 4132 a0bf cd15 8fbd
000003b0: 62a1 763d edaa 00bf e73b d5be 5731 ea3b
000003c0: d200 0ebf dd55 0d3f 0427 95be d80c 65be
000003d0: 3c1b c8be 4519 b8bf 52fe 6ebf 7fcc c8bc
000003e0: 6bb0 e4be 5e0b 29be 6a56 703b 9343 8abf
000003f0: d44f aa3e 9e19 343c 9200 0a3d 7886 5cbf
-0.062260665 -2.069277 0.75234216 -1.4144152 -0.63017774 0.37705398 -2.662951 0.4756423
-0.06514973 -2.0139973 0.42401326 -3.3899825 -0.3393884 0.5052366 0.147893 0.06533654
-0.074673004 0.20185938 0.35971996 -3.2898414 -0.045021515 -0.16939756 -0.30306637 -0.32923916
-1.0878624 -0.74136335 -0.31337234 -1.2422787 0.0074290936 0.5566924 0.09782957 0.15524375
-0.950445 -0.7930502 -0.023428064 0.08471832 0.28976548 0.00019784865 -0.8169049 -0.14286064
-0.4670828 -1.0815657 0.20529118 0.28619197 -1.0017328 0.32432666 -0.19449966 -0.5822311
-0.2633397 0.21041809 -3.0584455 0.57183826 0.23463652 -0.57128364 -0.45774704 -0.74580014
-0.5592696 0.12828743 0.31876877 -0.18761553 0.16661738 -2.516348 -3.090461 0.24145582
-0.015172635 0.3175488 0.14104249 -2.578684 -0.15548635 -1.5388961 -3.1922603 0.7040755
0.26709968 0.6706294 -0.15648134 -1.4068476 -0.25328434 -2.540887 -1.2605325 -0.026394708
0.6169259 -1.3980186 0.68917364 -2.0068402 0.23236652 -1.1980134 -3.09839 0.32265475
-0.03750549 -1.6884416 -0.41973123 -0.29693457 0.561362 -1.059572 -0.21089719 0.010796974
-2.7484257 -1.9745309 -0.92353433 0.47350553 0.48527348 0.54123956 -0.35046774 0.04055614
-0.4947703 0.05763996 -0.62985003 0.2300918 -1.6409253 -0.016357388 -3.9663575 0.5460721
-0.16648461 -0.11179592 -1.6623667 0.46663788 -1.0888766 -1.8576621 -2.5927494 0.6601848
0.14990075 -0.3429298 -0.08486141 -0.27590412 -0.7530817 -1.9238534 -1.678528 0.51227087
-0.7047197 0.36720622 -1.364539 -0.52691776 -0.010015185 -1.1798606 -2.5453444 0.7533494
-0.7926444 -0.64366484 -3.5727193 0.28917226 0.50968385 -0.030967383 -0.54549843 0.13210069
-1.5376594 -0.2280713 -0.661965 -2.5915363 0.33317003 0.122373976 -0.021122636 0.6471033
-1.6851392 0.57187283 0.16314825 -3.4876 0.23935436 -0.9565331 -0.7602733 0.5003083
0.23517619 -0.33475134 0.6094961 0.2249937 -1.5672218 0.3509174 -0.66229725 -2.4902678
-0.20866558 0.031630248 -0.031822044 0.7084055 0.24264282 -0.196283 -1.1822486 -3.0449953
-0.8093462 -0.26739243 0.1794343 -0.107932664 0.39459386 0.38705066 -0.02567778 -3.0474973
-3.0268695 0.6259742 0.32130915 0.56775314 0.33228734 -1.5458201 -3.8615372 -0.74829227
-0.4363509 0.5231977 -1.8910648 0.59862936 0.61114913 -1.6448916 -0.61358535 -2.2465527
-2.1318307 0.36591497 -2.6491036 -0.17548326 0.187574 -0.45386633 -0.64730114 0.6096766
-0.7563701 -0.5276921 -1.2305263 0.76465595 -0.058277313 0.55598444 -0.1381383 -1.7519206
0.5805042 -1.4249082 -1.7627861 0.031499658 -0.9157923 -0.28635284 -1.8255657 0.7427777
0.17130584 0.36252278 0.14434594 0.009052256 -2.2011464 -1.7597628 -2.1489322 0.09474738
-0.33266762 -0.1139715 -1.2515336 -0.0698658 0.0602125 -0.5026081 -0.41647264 0.007146995
-0.5547 0.5520914 -0.2913133 -0.22368181 -0.39083278 -1.4382712 -0.9335681 -0.024511574
-0.44665846 -0.16508242 0.00366726 -1.0801872 0.3326403 0.010992436 0.03369195 -0.86142683

l3.bias f4 [105]
00000000: 844d 6e3e cc70 80be 6d2e c23c 432f 38be
00000010: e19d 2dbf ec25 cd3e e4c6 26be bef3 8ebe
00000020: 5784 503d ac4d abbd 8322 0c3f 3cea 0c3e
00000030: a754 22bb 1466 053e 8e50 18be 3dde 2abe
00000040: 78dd 653e 1e9e be3d c610 b8be 49a5 473e
00000050: 8745 dd3e ca23 973e ab82 a8bc 4df3 96bd
00000060: c00e a13d bdc2 bf3e 17c9 233e 6a9b f8bd
00000070: 7179 b0be db04 06bf d795 10bf c467 fbbd
00000080: 0e65 4fbe 0bff 7ebe 6f53 98be fe00 c1be
00000090: d15e 93bc 9d15 3c3e 06b6 93be 8104 9e3e
000000a0: 0c63 943e 172c 013f 5699 0ebf af1b ca3d
000000b0: 1d56 bdbd 494b 6abe 822c 76bd 6314 653e
000000c0: ddb2 c6be 0294 753e ead7 583f 3cb5 9a3e
000000d0: 2ec2 e23d 8d9e ea3d edd6 5e3e 9e00 e83d
000000e0: e80a 25bf deb4 a23e d4a6 11bd 61e2 ef3d
000000f0: b227 5d3e 0e64 903d e840 713e ec0e 9a3d
00000100: d4ba e33d 9d00 8dbd 7150 913d 73c3 f83d
00000110: 36f1 e8bc 4bc0 dc3e 361a 05be 87ba 54be
00000120: 79a6 f6bd 98fe e1be d208 f33d d629 0dbb
00000130: 2831 f1be 3c27 bd3e cfbb f6bb c139 713e
00000140: bf71 78bc 6fb9 173f 035c 85bd e68e e33d
00000150: b3ce 323e a409 bcbe 4d5d 9fbc 8c46 0abc
00000160: 6996 2b3d 51db 5a3d 9737 b13e 8cfb 82be
00000170: ca80 f13d 692a bc3e a1c2 cbbd 03cf 33be
00000180: 5bdb 333e 567b 613e e558 a73e 290a 08be
00000190: c34e 313d 7dbf c9be acba b5be 8924 83bd
000001a0: f3f1 9abc
0.23271757 -0.25086057 0.023703778 -0.17986779 -0.6781903 0.40067995 -0.16286808 -0.27920336
0.05090746 -0.08364424 0.5474016 0.13761228 -0.0024769695 0.13027221 -0.14874479 -0.1668634
0.22447765 0.09307502 -0.35950297 0.19496645 0.43217108 0.29519492 -0.02057012 -0.07370625
0.078641415 0.3745326 0.15994678 -0.12139018 -0.34467652 -0.5235116 -0.5647864 -0.12275651
-0.20253393 -0.24901979 -0.29751155 -0.3769607 -0.017989548 0.1836762 -0.2884981 0.3086281
0.28981817 0.504579 -0.5570272 0.098685615 -0.092449404 -0.22880282 -0.06010104 0.22371058
-0.38808337 0.23982242 0.8470446 0.30216396 0.11072193 0.114560224 0.21761675 0.11328243
-0.64469767 0.31778616 -0.03555949 0.117131 0.21597174 0.07050334 0.23559916 0.07522377
0.11119619 -0.068848826 0.07095421 0.12146654 -0.02843533 0.43115458 -0.1299828 -0.2077428
-0.12043471 -0.44139552 0.11866917 -0.0021539829 -0.47107816 0.36943996 -0.0075297127 0.23557188
-0.015163838 0.59267324 -0.065116905 0.1111124 0.17461662 -0.36726105 -0.019453669 -0.008439671
0.04189149 0.053431813 0.34612724 -0.2558254 0.11792143 0.36751106 -0.09949232 -0.17559437
0.17564146 0.22019705 0.3268501 -0.13285126 0.043288004 -0.39403906 -0.35493982 -0.06403453
-0.018914199
